stochastic_min_tests/van_der_pol/pinn_stoch_van_der_pol_alpha0.5_beta0.5_mu_1.0.py_loss=sto_Zubov_N=700000_epoch=8_layer=2_width=10_lr=0.001_data=7000.pt (torch, 6420 bytes, 5 tensors)

weight f4 [10, 2]
0	0xbedf1c9d	-0.43576518
1	0x3d8b9ff2	0.068176165
2	0x3cb2bdde	0.021819051
3	0x3f2fe079	0.68701893
4	0xbf03c9e2	-0.51479924
5	0x3ee9496e	0.45563835
6	0xbea7f543	-0.32804307
7	0xbfef94c2	-1.8717272
8	0xbf523d7a	-0.82125056
9	0x3e089083	0.13336377
10	0xbdb883b9	-0.09009499
11	0x3da8a2a2	0.08234145
12	0xbf141b41	-0.57854086
13	0xbf194922	-0.59877217
14	0xbf98bf3e	-1.1933362
15	0x3b3f087f	0.0029149351
16	0xbe97cc92	-0.29648262
17	0x3f8d9ed5	1.1064097
18	0xbe5792d5	-0.21052106
19	0xbe8c2601	-0.27372745

bias f4 [10]
0	0x3f47c99b	0.78042
1	0xbf721572	-0.9456397
2	0x3f83d3c0	1.0298996
3	0x3f548c1a	0.8302628
4	0xbf555f2e	-0.8334836
5	0x3c8b9b8e	0.017041948
6	0xbf7c49ec	-0.98550296
7	0x3fb99d31	1.4501096
8	0x3fd59323	1.6685528
9	0xbfbd5b36	-1.479346

weight f4 [10, 10]
0	0x3f18f5ef	0.59750265
1	0xbfc3fae0	-1.5310936
2	0x3f1df403	0.6170046
3	0x3f12d057	0.5734915
4	0xbe72373e	-0.23653886
5	0xbf083169	-0.53200394
6	0xbec74707	-0.38921377
7	0x3ee22e43	0.4417592
8	0xbfc709cf	-1.5549868
9	0x3f2cfc1a	0.67572176
10	0xbec1e87c	-0.37872684
11	0xbf8bf102	-1.0932925
12	0x3e897d77	0.26853535
13	0x3d938f93	0.07205119
14	0xbfa799ca	-1.3093808
15	0xbefb15bd	-0.49040022
16	0xbee45a79	-0.44600275
17	0xbef007ae	-0.4688086
18	0x3eca1424	0.3946849
19	0x3e661639	0.22469415
20	0x3dd19290	0.10233033
21	0x3e81c8da	0.2534855
22	0x3db5f054	0.088837296
23	0xbe75515f	-0.23956822
24	0xbec62d37	-0.3870637
25	0xbd83dbb7	-0.06438392
26	0xbd7bedb9	-0.061506007
27	0x3ebb7e14	0.36619627
28	0x3f3599a2	0.7093755
29	0x3debcbec	0.115135044
30	0xbf0cc374	-0.5498574
31	0x3efcbd99	0.49363402
32	0xbf1e61a9	-0.6186777
33	0xbee542ac	-0.4477743
34	0xbf0eed3c	-0.5583074
35	0xbeb59398	-0.35464168
36	0xbf065941	-0.5247994
37	0xbe09db5c	-0.13462585
38	0xbf84fdb2	-1.0389922
39	0xbe6a9710	-0.22909188
40	0x3f8795f1	1.0592633
41	0x3f82b7fe	1.02124
42	0xbd2d2a6d	-0.04227679
43	0xbf86d7ef	-1.0534648
44	0x3f9530df	1.1655539
45	0x3c45ba97	0.012068412
46	0x3faebe61	1.3651849
47	0xbf97a060	-1.1845818
48	0xbcb748d1	-0.022373589
49	0xbb94a29a	-0.004535985
50	0xbe8b9023	-0.27258405
51	0xbe57697e	-0.21036336
52	0xbe05cb95	-0.13065942
53	0xbeed5c2d	-0.46359387
54	0xbedc0dc6	-0.42979258
55	0xbf272d45	-0.6530345
56	0x3dbee496	0.09320943
57	0x3e93ec74	0.28891337
58	0x3e751fd3	0.23937921
59	0x3f1e852b	0.6192195
60	0xbe7056f5	-0.23470671
61	0x3f26d1a9	0.65163666
62	0x3f154c49	0.58319527
63	0xbeb94a66	-0.36189574
64	0xbea5632c	-0.32302225
65	0x3e6d6a53	0.2318509
66	0x3f1ead1a	0.6198288
67	0x3f24dec6	0.64402425
68	0x3f364db4	0.71212316
69	0xbe6fe0ee	-0.23425648
70	0x3ee4c5b7	0.44682094
71	0xbf3fa348	-0.7485852
72	0xbe053443	-0.13008218
73	0xbf30d3ee	-0.6907338
74	0x3f37c368	0.7178254
75	0xbed5ac15	-0.4173285
76	0x3e1d78ee	0.15378162
77	0xbe814098	-0.25244594
78	0xbefde307	-0.4958727
79	0xbda3627c	-0.07977769
80	0x3f03e7ff	0.5152587
81	0xbefcf755	-0.4940745
82	0x3e2bdbdf	0.16783093
83	0x3e044805	0.12918098
84	0xbcea0844	-0.028568394
85	0xbea869b4	-0.32893145
86	0xbe9d676e	-0.30742973
87	0x3ea36ab7	0.31917354
88	0xbdb2accb	-0.08724364
89	0x3dc5f528	0.096659005
90	0x3e2cc72b	0.16872852
91	0x3f39575a	0.7239891
92	0x3e9a3e2e	0.30125564
93	0x3dff8184	0.12475875
94	0x3f853ea6	1.0409744
95	0x3e6f6e42	0.23381904
96	0xbdbfcbe3	-0.0936506
97	0x3ef14094	0.47119582
98	0xbe192c3d	-0.14958282
99	0x3f3e380f	0.7430429

bias f4 [10]
0	0xbdc49f41	-0.09600688
1	0xbe9eb2b7	-0.30995724
2	0x3e995c63	0.29953298
3	0x3dccb487	0.0999537
4	0x3f3bf7b3	0.73424834
5	0xbf8a9884	-1.0827794
6	0xbeaf45fe	-0.34233087
7	0x3f5cdd52	0.8627521
8	0xbed01bf8	-0.40646338
9	0xbe110c58	-0.14164865

weight f4 [1, 10]
0	0x3de2674f	0.11054861
1	0xbf027beb	-0.50970334
2	0x3ea22f87	0.31676885
3	0x3ee4ae05	0.44664016
4	0x3e87aaa4	0.26497376
5	0xbf003442	-0.5007974
6	0xbe7f1a02	-0.24912265
7	0x3e7fa785	0.24966247
8	0xbdb1aefc	-0.08675954
9	0xbe931164	-0.28724205
